models/planes_not_planes_classifier.pth (torch, 434593 bytes, 8 tensors)

conv1.weight f4 [16, 3, 3, 3]
0	0x3db96df7	0.09054177
1	0x3dc2ae6b	0.09505924
2	0xbdca8491	-0.09888566
3	0x3e0fcfc5	0.14044102
4	0xbdbf7be9	-0.09349806
5	0xbbb66535	-0.005566264
6	0xbe23d8c2	-0.16000655
7	0x3cfec090	0.03109768
8	0x3dd4280a	0.10359199
9	0xbe192b23	-0.14957862
10	0x3e20b4f9	0.15694036
11	0x3d12ecba	0.03587029
12	0x3e18ea9e	0.1493325
13	0x3ccffba2	0.025388543
14	0x3dcee47a	0.10102172
15	0xbd684cb6	-0.056713782
16	0x3de5190c	0.11186418
17	0x3c2f3339	0.010693365
18	0xbdc04487	-0.093880706
19	0x3d35b0f8	0.044358224
20	0xbd9e860a	-0.0774041
21	0xbcc34741	-0.023837687
22	0xbda6a75c	-0.0813739
23	0x3e1083f4	0.14112836
24	0xbe4cea64	-0.20011288
25	0xbe112811	-0.1417544
26	0xbd9ad6db	-0.07560512
27	0xbd91e87a	-0.071244195
28	0xbd199d80	-0.03750372
29	0xbe6e0be4	-0.23246723
30	0x3db1ae07	0.08675771
31	0xbe9b879d	-0.30376902
32	0x3db13b23	0.086538576
33	0x3e0ad11d	0.13556333
34	0x3d45f2a7	0.048327114
35	0x3e9d822e	0.30763382
36	0x3d82d409	0.06388099
37	0x3d9d5a62	0.07683255
38	0xbd386012	-0.045013495
39	0xbe2b216b	-0.16711967
40	0xbdebc16d	-0.115115024
41	0xbe0ea565	-0.1393028
42	0x3e33b231	0.17548443
43	0x3e89cede	0.2691564
44	0x3e92b88c	0.28656423
45	0xbdea5f3f	-0.11443948
46	0xbd58bc1b	-0.052913766
47	0xbdf021ee	-0.117252216
48	0xbcad53ab	-0.02115806
49	0xbe9eab00	-0.30989838
50	0xbe99a0d5	-0.30005518
51	0x3d7ba0f1	0.061432783
52	0xbca5de5e	-0.020247635
53	0x3ebb984f	0.3663964
54	0x3d9218bd	0.07133625
55	0x3cb14642	0.021639947
56	0xbc1222eb	-0.008919458
57	0xbc3b02f7	-0.011414281
58	0x3db7ba6f	0.08971106
59	0xbe494b1f	-0.19657563
60	0x3ceea5d7	0.029131813
61	0xbe13469d	-0.14382406
62	0x3d8b3643	0.06797459
63	0x3c93458b	0.017977497
64	0x3d894732	0.067030326
65	0xbd6d4e62	-0.05793608
66	0x3e5f69d9	0.21817721
67	0xbde2155d	-0.11039231
68	0xbdfbb2af	-0.122899406
69	0xbce65552	-0.028116856
70	0x3e684260	0.2268157
71	0x3e035030	0.12823558
72	0x3e94933e	0.29018587
73	0xbe1dc3c6	-0.15406713
74	0xbe77b053	-0.24188356
75	0xbd4a8b5a	-0.049449302
76	0xbddc752b	-0.107645355
77	0x3d7fb892	0.06243188
78	0x3e532e18	0.20623052
79	0x3e7ef9f6	0.2490004
80	0xbc98b5e6	-0.018641423
81	0xbdbc627a	-0.091984704
82	0x3e1f81b9	0.15576829
83	0xbb3eaf86	-0.002909632
84	0x3e2049fd	0.15653224
85	0xbb9a8976	-0.0047160937
86	0x3e3adfa2	0.18249372
87	0xbdb8d52f	-0.090250365
88	0xbcd54608	-0.02603437
89	0x3e22627e	0.15857884
90	0x3d08e9ec	0.03342621
91	0xbd3cb30c	-0.04606919
92	0x3e0d188d	0.13778897
93	0x3df430e9	0.11923391
94	0xbe1bdb69	-0.15220417
95	0xbdaf8fea	-0.08572371
96	0x3e39e93c	0.18155378
97	0xbd51bde2	-0.051206477
98	0xbce023ee	-0.027360883
99	0xbe573b4a	-0.2101871
100	0xbdf089c7	-0.11745029
101	0x3d83e3a5	0.06439904
102	0xbd4d8a23	-0.050180566
103	0xbe27ed22	-0.16399053
104	0x3c8063d4	0.015672602
105	0xbe0aed9a	-0.135672
106	0xbe1f6ebb	-0.15569584
107	0xbd862d39	-0.06551594
108	0xbe2c7a22	-0.16843465
109	0xbdfaf668	-0.122540295
110	0x3e44fde7	0.19237481
111	0x3d14e2b0	0.036349
112	0x3d72ea2c	0.059305355
113	0xbe37cd96	-0.17949519
114	0xbe016e00	-0.12639618
115	0xbd8330ea	-0.06405814
116	0x3cf686f0	0.03009364
117	0xbe2d67b6	-0.16934094
118	0xbda9d2c7	-0.08292156
119	0xbdebf539	-0.11521382
120	0x3a0bcf00	0.00053332746
121	0xbd92a8f2	-0.0716113
122	0xbc5a7f20	-0.013335973
123	0xbe058a2c	-0.1304099
124	0xbe074463	-0.13209681
125	0xbde5f0d1	-0.11227573
126	0xbd86e990	-0.06587517
127	0xbe1b8aef	-0.15189718
128	0x3e253c7f	0.16136359
129	0xbd1c71c0	-0.038194418
130	0x3e298eb3	0.16558342
131	0x3d759cd4	0.059964016
132	0xbe26e09a	-0.16296616
133	0x3e0860ed	0.13318224
134	0xbd58e3d4	-0.05295165
135	0xbdee2964	-0.116289884
136	0xbe4a34d7	-0.1974672
137	0xbe5904b1	-0.21193196
138	0x3c1beeaf	0.009517356
139	0xbdb987d3	-0.090591095
140	0x3d08f5f5	0.033437688
141	0xbe3954b0	-0.18098712
142	0x3dbf3955	0.09337107
143	0xbe3ca8c6	-0.18423757
144	0xbc6ca7ee	-0.014444334
145	0x3d982aab	0.07430013
146	0x3e0f7994	0.14011222
147	0x3e36a74e	0.17837259
148	0x3e51b1ac	0.20477933
149	0xbe02b0ae	-0.1276271
150	0x3da910a3	0.08255126
151	0xbd847864	-0.06468275
152	0xbc0ca8ea	-0.008585194
153	0xbdb03498	-0.086037815
154	0x3e8dddff	0.27708432
155	0xbd73341d	-0.05937587
156	0x3e3d3e50	0.18480802
157	0x3e41efb4	0.18939096
158	0x3e129415	0.14314301
159	0xbcddaec2	-0.02706087
160	0x3e850d79	0.2598684
161	0x3dbb7551	0.09153236
162	0xbd5e0cff	-0.054211613
163	0xbe0ce878	-0.13760555
164	0x3df515e8	0.11967069
165	0xbe03ebc5	-0.12882908
166	0xbd838257	-0.06421345
167	0x3e4ade46	0.19811353
168	0x3cd6ca99	0.026219653
169	0xbe2f1921	-0.1709943
170	0xbe2b8007	-0.16748057
171	0xbdb9a49a	-0.090645984
172	0x3e075819	0.132172
173	0xbc7b9bfe	-0.015357016
174	0xbe5ad006	-0.21368417
175	0xbd4e2f35	-0.05033799
176	0xbdef0773	-0.11671343
177	0x3d2a0c63	0.04151572
178	0x3daabbb3	0.08336582
179	0xbe80caa8	-0.25154614
180	0xbccc9ea4	-0.02497799
181	0x3e0c20df	0.13684414
182	0x3da46b0f	0.08028232
183	0xbe2a4c62	-0.166307
184	0x3e013c35	0.12620623
185	0x3e0f8f47	0.140195
186	0x3d1f2266	0.038851164
187	0xbdd90dac	-0.10598311
188	0xbe04bf69	-0.12963642
189	0xbb8060d3	-0.0039177923
190	0xbd2ce6a6	-0.04221215
191	0xbe292f26	-0.16521892
192	0x3e01a5aa	0.12660852
193	0x3e371d18	0.17882192
194	0xbd896d3a	-0.067102864
195	0xbd8d57dd	-0.06901524
196	0xbd09f9fc	-0.03368567
197	0xbd32b898	-0.043633074
198	0x3cf1f1e9	0.029534297
199	0x3d5c5809	0.053794894
200	0xbe8b216e	-0.27173942
201	0xbd9f2dea	-0.07772429
202	0x3e281001	0.16412355
203	0x3c0519ca	0.008123824
204	0xbd8407a5	-0.064467706
205	0xbe369a05	-0.17832191
206	0xbe35296f	-0.17691587
207	0xbe4c052f	-0.19923852
208	0xbd99aa0d	-0.07503138
209	0xbcc8cc81	-0.024511578
210	0x3ddf31a0	0.10898137
211	0x3dacba56	0.08433978
212	0xbe684f6b	-0.22686546
213	0xbe323459	-0.17402782
214	0xbdc237a3	-0.09483268
215	0x3e01b4ca	0.12666622
216	0x3d076b5c	0.03306137
217	0xbd66a7d9	-0.056312416
218	0x3d9a1da7	0.07525187
219	0xbdd03441	-0.10166217
220	0xbe20b3ff	-0.15693663
221	0x3ddecf66	0.10879402
222	0xbdfb8896	-0.12281911
223	0xbd9699ac	-0.07353529
224	0xbe5a639a	-0.21327057
225	0x3e0dc015	0.13842805
226	0x3e14cb80	0.14530754
227	0x3d8eadf9	0.069667764
228	0xbe1f6249	-0.15564837
229	0xbe5cf626	-0.21578273
230	0xbe3b9696	-0.18319163
231	0x3de53f78	0.11193746
232	0x3d806d2c	0.06270823
233	0x3e13b4a8	0.14424384
234	0x3deb332d	0.114843704
235	0x3d534e3d	0.051588286
236	0xba9ab761	-0.0011803919
237	0xbe2af79a	-0.16696015
238	0xbe42b8c7	-0.190158
239	0xbe521fe3	-0.20519976
240	0x3d4b0454	0.049564674
241	0xbdf8f357	-0.121557884
242	0xbd5183b5	-0.051150996
243	0xbe011506	-0.12605676
244	0xbc90f6c6	-0.017695796
245	0xbdc9d1b0	-0.09854448
246	0xbe0cda97	-0.1375526
247	0x3d9cad97	0.07650297
248	0xbd37f101	-0.044907574
249	0x3dde7108	0.10861403
250	0xbdb28c5f	-0.0871818
251	0xbe261fb4	-0.16223031
252	0xbda5d690	-0.08097565
253	0xbde592d5	-0.112096466
254	0xbd63ef3d	-0.055648077
255	0xbe6233d6	-0.22090086

conv1.bias f4 [16]
0	0xbe80137c	-0.25014865
1	0x3e00be97	0.12572704
2	0xbe85f637	-0.2616441
3	0x3e812510	0.2522359
4	0xbd98e85c	-0.07466194
5	0xbe58f6a5	-0.21187837
6	0x3d11d49f	0.035603162
7	0x3d91a0e1	0.07110763
8	0xbd3dac45	-0.046306867
9	0x3e6b63c7	0.22987281
10	0xbcc2c154	-0.023773827
11	0x3d8bddea	0.06829436
12	0x3e9d86bf	0.30766866
13	0xbe9e63a2	-0.3093539
14	0xbe966a84	-0.2937814
15	0x3e794ff1	0.24346901

conv2.weight f4 [32, 16, 3, 3]
0	0x3ccd9ee4	0.025100179
1	0xbd6df946	-0.058099054
2	0x3c0dcd96	0.008654973
3	0xbdc6f35a	-0.097143844
4	0xbdb3f55f	-0.08787035
5	0x3d23e7c9	0.04001597
6	0xbbc9b260	-0.006155297
7	0xba4ede5d	-0.0007891411
8	0xbcf80623	-0.030276364
9	0x3d719e66	0.05898895
10	0xbc2f178e	-0.010686768
11	0xbdaebb24	-0.08531788
12	0x3d96b0ea	0.073579624
13	0x3d65f879	0.056145165
14	0x3daf01c3	0.08545258
15	0xbe1623b7	-0.14662062
16	0xbd34847b	-0.044071656
17	0xbd97c66a	-0.07410891
18	0xbe01e509	-0.12685026
19	0xbe609e56	-0.219354
20	0x3e0c8186	0.13721284
21	0x3e4cfc43	0.20018105
22	0xbd99b767	-0.07505684
23	0x3de0a2bb	0.109685384
24	0x3ae95721	0.0017802456
25	0xbddb16c1	-0.10697699
26	0x3d15d47c	0.036579594
27	0x3e7c2cc2	0.24626449
28	0x3e2e40eb	0.17016952
29	0x3de28652	0.11060776
30	0x3da04726	0.078260705
31	0x3e0454bc	0.12922949
32	0x3e036485	0.12831314
33	0xbdbcc021	-0.09216333
34	0xbbf0f8c9	-0.0073538763
35	0xbc09d8b6	-0.008413484
36	0xbd493176	-0.049119435
37	0xbd5e3a9e	-0.05425512
38	0x3d31ebb2	0.043437667
39	0xbc655ae0	-0.013998717
40	0x3d9bf3e1	0.076148756
41	0x3da60585	0.081065215
42	0x3ccc307c	0.024925463
43	0x3ceaf1ec	0.02867981
44	0x3c9d3500	0.019190311
45	0xbcf120ae	-0.029434528
46	0xbd32543e	-0.04353737
47	0x3da7cf1b	0.08193799
48	0x3d0624d0	0.03274995
49	0xbccd5458	-0.025064632
50	0xbd83e665	-0.06440429
51	0xbc1f7fa0	-0.009735018
52	0xbde2d8e1	-0.110765226
53	0xbd4c3b6f	-0.049861368
54	0xbe509a8d	-0.20371456
55	0x3db374a2	0.0876248
56	0x3df13d79	0.11779303
57	0x3ab65165	0.0013909756
58	0xbe30d77d	-0.17269702
59	0x3d0131ac	0.03154151
60	0x3cd231e3	0.025658553
61	0xbe1ae260	-0.15125418
62	0xbd1f108c	-0.03883414
63	0xbd5a0cf1	-0.053234998
64	0x3d618cfa	0.055066086
65	0xbce71ecb	-0.028212925
66	0xbcc5e786	-0.02415825
67	0xbda67be4	-0.08129099
68	0xbb762907	-0.0037561075
69	0xbd974d76	-0.073878214
70	0xbcf639ff	-0.030056952
71	0xbd11e2f3	-0.035616826
72	0xbd3ba22a	-0.04580895
73	0xba900635	-0.0010988178
74	0x3bd7fc50	0.0065913573
75	0x3cd0bad5	0.025479713
76	0xbbc1d62a	-0.005915423
77	0xbdde44ed	-0.1085299
78	0x3db54f20	0.088529825
79	0x3d56c6f8	0.052435845
80	0xbcacbb21	-0.021085324
81	0x3cf88eeb	0.030341586
82	0x3c9aa45f	0.018877206
83	0xbdf3a4c1	-0.11896659
84	0x3d2defee	0.042465143
85	0x3d351925	0.044213433
86	0xbdd8b9f1	-0.105823405
87	0x3d85102d	0.06497226
88	0xbe007a36	-0.1254662
89	0xbd6d85ce	-0.057988934
90	0xbd44bbd5	-0.048030693
91	0x3d8ac8e1	0.06776596
92	0xbd4f381b	-0.050590616
93	0xbbc52890	-0.0060167983
94	0xbc97834c	-0.018495224
95	0xbcfe1536	-0.031015974
96	0x3da09a21	0.07841898
97	0x3b8822b2	0.0041545266
98	0x3d8021f2	0.062564746
99	0x3d47284d	0.04862242
100	0x3df51cd6	0.11968391
101	0xbdb2675e	-0.08711122
102	0xbd83e9be	-0.06441067
103	0x3be756ce	0.0070599085
104	0xbd40face	-0.047114186
105	0xbd56f85e	-0.052482955
106	0x3b7d1ad1	0.003862072
107	0xbcfd36cd	-0.03090992
108	0x3d748820	0.05970013
109	0xbc8afbdb	-0.016965797
110	0x3c5c2c5e	0.013438312
111	0x3e0af203	0.13568883
112	0x3e37034c	0.17872351
113	0x3db738e3	0.08946397
114	0x3ce2e812	0.02769855
115	0xbd3150d3	-0.04328997
116	0xbe3be238	-0.18348014
117	0x3b7f733c	0.0038978597
118	0x3e1bd4b6	0.15217862
119	0x3ddc9c0c	0.10771951
120	0xbe3a0fb9	-0.1817006
121	0xbe5e3b89	-0.21702398
122	0xbd9dc1cf	-0.07702982
123	0xbd0647d8	-0.03278336
124	0x3d91d1dd	0.07120106
125	0x3d5f681e	0.054542653
126	0x3cacc37e	0.021089312
127	0x3c055904	0.008138899
128	0xbc50ed95	-0.0127519565
129	0x3c832dcc	0.016013049
130	0xbdb6ab8b	-0.08919438
131	0xbdd52d7c	-0.10409066
132	0x3cef8916	0.029240172
133	0xbe0ed743	-0.13949303
134	0xbbf71d07	-0.007541302
135	0x3e45218a	0.19251075
136	0x3d9282e7	0.07153874
137	0x3da6ab03	0.08138087
138	0x3e2ee88a	0.17080894
139	0x3df72832	0.120682135
140	0x3e4240aa	0.1896998
141	0x3d8bc64c	0.068249315
142	0xbcda3df7	-0.026640875
143	0x3c337a81	0.0109545
144	0x3c65f67a	0.014035815
145	0x3cd5e57c	0.026110403
146	0x3cda52c4	0.026650794
147	0xbd87ba32	-0.06627311
148	0xbd806817	-0.062698536
149	0xbd8ab255	-0.067722954
150	0x3debb689	0.11509425
151	0x3d15d6c5	0.036581773
152	0xbdd65e76	-0.10467236
153	0x3d080d29	0.033215676
154	0xbd227411	-0.03966147
155	0x3d3c9ab4	0.046045974
156	0xbd67d655	-0.056600887
157	0xbdf9c08f	-0.12194931
158	0xbe8cd410	-0.2750554
159	0x3e6301c1	0.22168638
160	0x3eb6df93	0.3571745
161	0x3e3f2d53	0.18669634
162	0x3e10ab8d	0.14127941
163	0xbdfbe644	-0.12299779
164	0x3cd75d2b	0.026289543
165	0x3d0ced41	0.03440595
166	0xbe1b5aba	-0.15171328
167	0xbe7f7dd2	-0.2495034
168	0x3dfbe20d	0.12298975
169	0x3de59599	0.11210174
170	0xbdd0b341	-0.1019044
171	0x3e1cf933	0.15329437
172	0x3d66a200	0.05630684
173	0x3d2d2198	0.042268366
174	0x3ba61923	0.0050689145
175	0x3c8c2e78	0.017112002
176	0x3c5d4602	0.013505461
177	0xbc4c654e	-0.012475325
178	0xbd836704	-0.06416133
179	0x3d2b7ccf	0.041867074
180	0xbda6f138	-0.081514776
181	0x3ccac2a0	0.024751008
182	0xbd61b140	-0.05510068
183	0xbd26968e	-0.040670924
184	0x3d030a8a	0.031992473
185	0x3d87b355	0.06626002
186	0xbcba9426	-0.02277572
187	0xbd0c2413	-0.03421409
188	0xbd9a52ab	-0.07535299
189	0xbc1ff2eb	-0.009762506
190	0xbd117f40	-0.035521746
191	0x3dc4e080	0.096131325
192	0xbd5100a3	-0.051025998
193	0xbe1ebcc0	-0.1550169
194	0x3c792ce2	0.015208455
195	0x3e1ae32d	0.15125723
196	0x3df41dfb	0.11919781
197	0xbd546796	-0.0518566
198	0xbdde6b24	-0.10860279
199	0xbd2151d8	-0.039384693
200	0xbdaf80c5	-0.08569483
201	0xbd9b38a6	-0.07579164
202	0xbd65bd76	-0.056088887
203	0xbbda20ab	-0.0066567264
204	0x3d9e07df	0.07716345
205	0xbd7f6176	-0.062348805
206	0x3d89d7ca	0.067306116
207	0x3db7c8ae	0.089738235
208	0x3d915fd0	0.07098353
209	0xbb094643	-0.002094642
210	0x3c0b1449	0.008488723
211	0x3e0efd31	0.13963772
212	0xbc439426	-0.011937177
213	0x3c9c443b	0.019075504
214	0xbe6b2631	-0.22963788
215	0x3e1843d5	0.14869626
216	0x3cf883bc	0.030336253
217	0xbd0384eb	-0.032109182
218	0x3c1422d1	0.009041504
219	0xbcffdf3a	-0.031234372
220	0xbd36624f	-0.044527348
221	0xbe299830	-0.16561961
222	0xbd860d79	-0.065455385
223	0x3d528a79	0.05140159
224	0x3de69ac1	0.11259986
225	0x3d8e40f5	0.06945983
226	0xbdac002f	-0.083984725
227	0x3c15663b	0.009118612
228	0xbce5ec25	-0.028066704
229	0x3c3a8f87	0.011386759
230	0xbdead866	-0.11467056
231	0x3c94a37a	0.018144358
232	0x3d4aa53a	0.04947398
233	0x3d9a2044	0.075256854
234	0xbd46cf9b	-0.04853783
235	0x3cd22210	0.025651008
236	0xbcdae4ac	-0.026720367
237	0x3da5a1cd	0.08087502
238	0xbd4630d6	-0.048386417
239	0xbcd7a340	-0.02632296
240	0xbda4ca8e	-0.08046447
241	0xbd066d68	-0.03281918
242	0x3c6be20f	0.014397158
243	0x3b94eb61	0.004544661
244	0xbdb19ef3	-0.08672895
245	0x3d720a7d	0.059092034
246	0xbb0f85ff	-0.0021899936
247	0x3c216ba9	0.009852328
248	0x3e08156c	0.13289422
249	0x3dd7ad81	0.1053114
250	0xbda7505e	-0.08169626
251	0xbd80ea79	-0.06294722
252	0x3cee40d6	0.02908365
253	0xbc405f0b	-0.01174141
254	0xbddf5486	-0.109047934
255	0x3bb910c1	0.005647749

conv2.bias f4 [32]
0	0x3d45f90d	0.048333216
1	0x3d8958e5	0.067064084
2	0xbe3aa13d	-0.1822557
3	0xbd561f40	-0.052275896
4	0xbe85a061	-0.26098922
5	0xbc2b23c4	-0.010445539
6	0xbdd65a37	-0.10466426
7	0x3dfb444a	0.122688845
8	0x3c54bd7a	0.012984628
9	0xba115535	-0.0005544008
10	0x3dc8aaa3	0.09798171
11	0xbc98fb9f	-0.01867467
12	0x3e03fbe6	0.1288906
13	0xbdc8185c	-0.09770271
14	0xbd28d1b1	-0.041215602
15	0xbd96b81c	-0.07359335
16	0xbc79ced5	-0.0152470665
17	0x3d863693	0.06553378
18	0xbd90dd52	-0.070734635
19	0xbdf768c3	-0.120805286
20	0x3ddb1438	0.10697216
21	0x3dca4065	0.098755635
22	0x3d4ae0f9	0.049530957
23	0xbd597616	-0.05309113
24	0x3d85ca83	0.06532767
25	0xbdbd01a7	-0.09228831
26	0xbda05bf8	-0.07830042
27	0xbe0cdbbe	-0.137557
28	0x3dc7a8a6	0.09748964
29	0xbe5c3ade	-0.21506831
30	0xbdd58688	-0.104260504
31	0x3db0e1ce	0.08636819

fc1.weight f4 [128, 800]
0	0x3d35c64b	0.04437856
1	0x3cac0206	0.020997059
2	0x3cc1cbac	0.023656689
3	0x3ce3315b	0.027733495
4	0x3ce86b44	0.02837146
5	0xbcdb6324	-0.026780672
6	0x3c9ab50d	0.01888516
7	0x3dc5b1a3	0.09653022
8	0xbd732a21	-0.05936635
9	0xbd57e236	-0.052705966
10	0xbe2be651	-0.16787077
11	0xbe3bb442	-0.18330482
12	0xbe4ed78c	-0.20199412
13	0xbe220ee6	-0.15825996
14	0xbde2fa1f	-0.11082863
15	0x3d94ca4e	0.07265149
16	0x3e384b4a	0.1799747
17	0x3e12bfd3	0.14330988
18	0x3dba1032	0.0908512
19	0x3deed8b7	0.11662429
20	0x3dc306c5	0.095227756
21	0x3e2266a5	0.15859468
22	0x3e2f9fb9	0.17150773
23	0x3e334c35	0.1750954
24	0x3e1aba3a	0.15110102
25	0x3dfc5cb2	0.12322368
26	0xbd0eae51	-0.03483421
27	0x3caa7e86	0.020812284
28	0x3d8d3925	0.06895665
29	0x3e5b803b	0.21435635
30	0xbe1cb63a	-0.15303889
31	0xbdc08134	-0.093996435
32	0xbd33f60c	-0.04393582
33	0xbe546dcb	-0.20745008
34	0xbe64f2b5	-0.2235821
35	0xbd8bf8a3	-0.06834533
36	0xbe41314e	-0.18866464
37	0xbe387237	-0.1801232
38	0xbdeba717	-0.11506479
39	0xbdd10a67	-0.10207062
40	0x3d7f476d	0.062323976
41	0x3e2bdbbc	0.16783041
42	0x3dfe3e36	0.124142095
43	0x3d38146c	0.04494135
44	0x3e0fd164	0.1404472
45	0x3b4d4501	0.0031321647
46	0x3d4ebc0e	0.05047231
47	0x3df62160	0.120180845
48	0x3e01440d	0.12623616
49	0x3e4b0f35	0.1983002
50	0x3de76308	0.112981856
51	0x3e38661b	0.180077
52	0x3d9b599a	0.075854495
53	0x3da8eb60	0.08248019
54	0x3e1c338b	0.15254037
55	0x3e38e304	0.1805535
56	0x3e5ad521	0.21370365
57	0x3cd77525	0.026300976
58	0x3d271874	0.040794805
59	0x3e057454	0.13032657
60	0x3e47cf60	0.19512701
61	0x3e63f477	0.22261225
62	0xbda505d9	-0.08057756
63	0xbe88737e	-0.26650614
64	0xbd8874f3	-0.06662931
65	0x3dedef5f	0.11617922
66	0x3d599f58	0.053130478
67	0xbd701f49	-0.058623586
68	0xbe3bb589	-0.18330969
69	0xbdaef41e	-0.085426554
70	0x3d383cef	0.044979986
71	0xbd94569c	-0.07243082
72	0xbe786845	-0.24258526
73	0xbe840da2	-0.2579165
74	0xbda71dcf	-0.081599824
75	0xbc8c10f4	-0.017097928
76	0x3e39ad17	0.18132435
77	0x3d9d72ab	0.07687887
78	0xbd9eb66e	-0.077496395
79	0x3cd26097	0.025680823
80	0x3bd4e942	0.006497533
81	0x3eb630e9	0.3558419
82	0x3e381572	0.1797693
83	0x3d57e3cb	0.052707475
84	0x3d3d48e0	0.046212077
85	0x3bbe5979	0.005809006
86	0x3e20feb3	0.1572216
87	0xbdc4aab6	-0.09602873
88	0x3d25b5fa	0.04045675
89	0x3d2e8825	0.042610306
90	0x3d6dfd02	0.058102615
91	0x3e53def2	0.20690516
92	0xbd0b8ede	-0.034071796
93	0x3d0e8d28	0.034802586
94	0xbc905e69	-0.017623143
95	0xbcfc05a8	-0.030764416
96	0xbd9e553a	-0.077310994
97	0xbe42133c	-0.1895265
98	0xbe51e52f	-0.20497583
99	0xbde066ae	-0.109570846
100	0x3db553e3	0.08853891
101	0x3df98294	0.12183109
102	0x3d25540c	0.040363356
103	0x39fc952d	0.0004817633
104	0x3df15b17	0.11784952
105	0x3e241ee0	0.16027403
106	0x3d2be4a5	0.0419661
107	0xbd868075	-0.0656747
108	0x3d775850	0.060386956
109	0x3de2c06d	0.110718586
110	0x3d8bd1e7	0.06827145
111	0x3da657ca	0.08122213
112	0xbdd8b0e1	-0.10580612
113	0x3e3360cf	0.17517398
114	0x3e0a6a7e	0.13517186
115	0x3dd4ff61	0.10400272
116	0xbdab4ebd	-0.083646275
117	0xbe604610	-0.21901727
118	0xbd700203	-0.05859567
119	0x3d315a9e	0.04329931
120	0xbb7b8a17	-0.0038381869
121	0xbe8873e9	-0.26650932
122	0xbe916825	-0.28399768
123	0xbe126e02	-0.14299777
124	0x3cd04bdb	0.025426796
125	0x3da3e2fe	0.0800228
126	0x3d8b3424	0.067970544
127	0x3dbf3000	0.09335327
128	0x3d8c90fb	0.0686359
129	0x3e0df893	0.13864355
130	0x3da388bd	0.07985065
131	0x3cf1e057	0.029525919
132	0x3d80c172	0.06286897
133	0x3caae9ee	0.0208635
134	0x3e1e9efe	0.15490338
135	0xbd2a7e24	-0.041624203
136	0x3de144a0	0.10999417
137	0xbc8bd1db	-0.01706784
138	0xbe4d4812	-0.20047024
139	0xbcf1f708	-0.029536739
140	0x3e4daae2	0.20084718
141	0x3db6514e	0.089022264
142	0xba778666	-0.0009442329
143	0xbe261896	-0.16220316
144	0xbddc9315	-0.10770241
145	0xbdbcf831	-0.09227026
146	0xbd19ec26	-0.037578724
147	0xbc15dcc6	-0.009146875
148	0xbe2391c7	-0.15973578
149	0xbdc791d8	-0.09744614
150	0xbc860dc6	-0.01636399
151	0x3c64c5d6	0.013963183
152	0x3d072c8d	0.03300147
153	0xbc94c804	-0.018161781
154	0xbd24eb25	-0.040263314
155	0xbac58a61	-0.0015071147
156	0xbd003b3d	-0.031306494
157	0xbcd5f7e8	-0.026119187
158	0x3d0103c1	0.03149772
159	0x3bd5db38	0.006526377
160	0x3bdbf006	0.0067119626
161	0x3c65a300	0.014015913
162	0x3cb02374	0.02150128
163	0x3cc28c86	0.023748647
164	0x3ccf71bc	0.025322787
165	0x3c69cc10	0.014269844
166	0x3cdc1c3c	0.026868932
167	0x3cbd3cee	0.023100343
168	0xbbc1b7a0	-0.0059117824
169	0x3b50b5d0	0.003184665
170	0xbc23a85d	-0.009988871
171	0xbcd9efe7	-0.026603652
172	0x3d095ad7	0.033533897
173	0xbcd7ad84	-0.026327856
174	0xbcb5117a	-0.02210306
175	0xbcda969f	-0.02668315
176	0x3d841740	0.06449747
177	0x3d235fb7	0.039886203
178	0x3dc14d05	0.094385184
179	0x3d96e9af	0.0736879
180	0xbe1569b2	-0.14591101
181	0xbd9afd4f	-0.07567846
182	0x3d57fb36	0.052729808
183	0xbe4d791a	-0.20065728
184	0xbda1ea1e	-0.079059824
185	0xbd16f5e0	-0.03685558
186	0xbdde242a	-0.108467415
187	0xbd3551a8	-0.044267327
188	0xbe614fa4	-0.22003037
189	0xbd95baa1	-0.07310987
190	0x3da0dda3	0.07854774
191	0x3e5fbcd0	0.2184937
192	0x3e7ac6f3	0.24489956
193	0x3e7458cc	0.23861998
194	0x3e23f5ce	0.16011736
195	0xbc6d20c7	-0.014473147
196	0x3c3cc5f3	0.011521804
197	0xbcbeccb3	-0.023290968
198	0x3dab1db7	0.08355277
199	0x3dd75fa4	0.10516289
200	0xbd058030	-0.032592952
201	0x3db6c156	0.08923595
202	0xbdf47dd9	-0.11938066
203	0xbd3cf405	-0.046131153
204	0x3dc7a4ac	0.097482055
205	0x3dd06465	0.10175399
206	0x3db7fbc3	0.089835666
207	0x3e0362fd	0.1283073
208	0xbe26a4ba	-0.16273776
209	0x3ca9fc53	0.0207502
210	0xbe5fe68f	-0.21865295
211	0xbe3e1fb6	-0.18566784
212	0xbe5b1ed0	-0.21398473
213	0xbdc823fb	-0.09772488
214	0xbdde07d1	-0.108413346
215	0xbe4db93d	-0.20090194
216	0xbe228634	-0.15871507
217	0x3dfc5e04	0.123226196
218	0x3e17e86b	0.14834754
219	0x3d40494b	0.046944898
220	0xbbeab2aa	-0.0071624117
221	0x3d4378d6	0.04772266
222	0x3d9121c7	0.07086521
223	0x3e299620	0.16561174
224	0x3dc611f4	0.09671393
225	0x3c59cb4d	0.0132931
226	0x3cbbd7fe	0.022930142
227	0xbdb074e6	-0.086160466
228	0x3de4d696	0.111737415
229	0xbce7b604	-0.028285034
230	0x3dc32681	0.095288284
231	0x3d8da229	0.06915695
232	0xbd2cfc7f	-0.042232987
233	0x3c355350	0.0110672265
234	0x3aafee67	0.001342249
235	0x3e340213	0.17578916
236	0x3d086732	0.03330154
237	0xbdbdc5d9	-0.09266252
238	0x3da1f2ce	0.079076394
239	0xbdcd4855	-0.10023562
240	0xbbb04487	-0.005379263
241	0xbdea79b0	-0.11448991
242	0xbe5cf475	-0.21577628
243	0x3d5863f7	0.05282971
244	0xba68d45b	-0.0008881741
245	0x3c52d0cc	0.012867164
246	0x3da1f4c9	0.07908017
247	0xbde14ecf	-0.1100136
248	0xbd4a4c5e	-0.049389236
249	0xbda80713	-0.08204474
250	0x3e34603b	0.17614834
251	0x3d2a50bc	0.0415809
252	0xbcc7af1a	-0.024375487
253	0x3d0cdb01	0.034388546
254	0x3de2dc03	0.1107712
255	0xbc88683c	-0.016651265

fc1.bias f4 [128]
0	0x3d8244e5	0.06360797
1	0xbd38992d	-0.045067955
2	0x3d866da8	0.06563884
3	0x3c13a4f3	0.009011495
4	0x3c287a5a	0.010283077
5	0x3c73e12a	0.014885226
6	0x3bfe26de	0.007756098
7	0x3d4dc998	0.050241083
8	0xbc93c2f8	-0.018037304
9	0x3c400adc	0.011721339
10	0xbd268987	-0.0406585
11	0x3d34590f	0.044030245
12	0xbd222d27	-0.039593842
13	0x3d2dfba8	0.042476326
14	0x3d2bfec1	0.041991
15	0x3d0e735e	0.03477799
16	0xbc8712d0	-0.016488463
17	0x3c3efee8	0.011657454
18	0x3c375185	0.011188869
19	0xbcdbe525	-0.026842663
20	0xbbe07f1a	-0.006851089
21	0x3c00fb28	0.00787238
22	0x3c9cc91c	0.019138865
23	0x3ce59427	0.028024746
24	0x3d45ca46	0.048288606
25	0xbce23d1b	-0.027617028
26	0xbbfbb409	-0.007681374
27	0xbd1811b2	-0.03712625
28	0xbd1b83fa	-0.03796766
29	0xbd64a7a4	-0.055823937
30	0xbd00f024	-0.031479016
31	0xbc3e7a2f	-0.0116258105
32	0x3c0583f1	0.008149133
33	0xbd1ebaaa	-0.038752235
34	0xbcff7d7f	-0.03118777
35	0xbbfd3a1a	-0.0077278735
36	0x3c67defa	0.014152283
37	0x3c90ce6b	0.017676553
38	0x3da338de	0.07969831
39	0xbc4a84e9	-0.01236079
40	0x3d1fb28e	0.038988642
41	0xbcbe727c	-0.02324795
42	0xbd00a681	-0.03140879
43	0x3c84da69	0.016217427
44	0x3cc98063	0.024597352
45	0x3c255249	0.010090419
46	0x3d7a7909	0.061150584
47	0x3d802592	0.06257166
48	0x3d81409b	0.06311151
49	0xbd07fafb	-0.033198338
50	0xbac30f5a	-0.0014881894
51	0x3cd9afaf	0.02657303
52	0xbbb789d1	-0.005601146
53	0xb9d5e05f	-0.00040793695
54	0x3de0d705	0.10978512
55	0x3d766f03	0.060164463
56	0x3c48a821	0.012247116
57	0x3c61d951	0.013784722
58	0xbca20b6a	-0.019780833
59	0x3cd58cf7	0.026068194
60	0xbd09f1e7	-0.03367796
61	0xbc5df361	-0.013546796
62	0xbb2bbb99	-0.0026204346
63	0x3d478e6b	0.048719805
64	0xbc914939	-0.01773511
65	0x3dc02b0e	0.09383212
66	0x3d64b054	0.055832222
67	0x3db9f0a1	0.090790994
68	0xbc4faa6c	-0.012674909
69	0x3c9479af	0.01812443
70	0x3c8d9521	0.017283024
71	0x3c87c514	0.016573466
72	0x3db46519	0.08808345
73	0x3b27ce8a	0.0025605285
74	0xbc67d09a	-0.014148856
75	0x3d73c8ef	0.059517797
76	0x3c9692af	0.018380491
77	0x3cf76a3c	0.030202024
78	0xbd1d4ec6	-0.038405202
79	0x3d5a51d1	0.053300682
80	0x3d2c8cdf	0.042126533
81	0x3b020f33	0.0019845485
82	0xbb527d91	-0.00321183
83	0xbc639bc4	-0.013892118
84	0x3d819083	0.063263915
85	0xbd099dd0	-0.033597767
86	0x3cb362f6	0.021897774
87	0x3d667e6c	0.05627291
88	0xbd14d9bc	-0.03634046
89	0x3cb0c92e	0.021580305
90	0xbc507e92	-0.012725489
91	0x3d25e0d7	0.040497627
92	0x3d02fcde	0.031979434
93	0x3b344a7b	0.0027510214
94	0xbca1539a	-0.019693185
95	0xbca60a98	-0.020268723
96	0xbbc72492	-0.0060773576
97	0x3cc6299c	0.024189763
98	0x3d7ac11a	0.061219312
99	0x3b41a90a	0.0029550218
100	0x3e376bb4	0.17912179
101	0x3dab0851	0.083511956
102	0x3b82a233	0.003986621
103	0xbc083db3	-0.0083154915
104	0xbc4de573	-0.012566912
105	0x3dc51734	0.09623566
106	0x3dcf59fe	0.101245865
107	0xbc358619	-0.011079335
108	0xbb1f67d3	-0.0024323359
109	0x3c486265	0.01223049
110	0xbc339bc9	-0.010962435
111	0x3cca6a6e	0.024708953
112	0xbc8d50e2	-0.017250482
113	0xbd291634	-0.04128094
114	0x3d3271b1	0.043565456
115	0xbcf50af1	-0.029912444
116	0xbd064383	-0.032779228
117	0xbc54013e	-0.012939749
118	0x3c3f1e79	0.01166498
119	0x3acee5b1	0.0015785006
120	0xbb770fee	-0.0037698704
121	0x3d027675	0.03185125
122	0x3c05d5b6	0.008168628
123	0xba14459e	-0.0005656126
124	0x3dc2c8ef	0.09510981
125	0x3d2700ec	0.040772364
126	0xbb20bb49	-0.0024525693
127	0x3ca2f348	0.019891396

fc2.weight f4 [2, 128]
0	0x3eed1630	0.4630599
1	0x3c098078	0.008392446
2	0x3d5eddee	0.054410867
3	0x3f1efdcf	0.6210603
4	0x3db8cd01	0.090234764
5	0x3d91f89f	0.07127499
6	0xbc3f78a0	-0.011686474
7	0x3e509c6f	0.20372175
8	0x3d66076e	0.05615943
9	0x3c64c7ea	0.013963679
10	0xbd5858d7	-0.0528191
11	0x3e94e840	0.29083443
12	0x3ceb3e31	0.028716179
13	0x3f14c4d0	0.5811281
14	0x3d076031	0.03305072
15	0x3e1f1131	0.15533902
16	0xbd32e1df	-0.04367244
17	0xbd18f501	-0.03734303
18	0xbd62d2d6	-0.05537685
19	0x3c3718e3	0.011175367
20	0x3e1cfada	0.15330067
21	0x3c9e1b2d	0.019300068
22	0x3dff4fa0	0.12466359
23	0x3e2616ce	0.16219637
24	0x3e458921	0.19290592
25	0x3c331fc5	0.010932867
26	0xbd5d8f48	-0.05409172
27	0xbcd7e0f0	-0.026352376
28	0xbd6a3ec2	-0.057188757
29	0xbd8859f9	-0.06657786
30	0xbd9c8629	-0.076427765
31	0x3cfab36c	0.030603133
32	0x3e12a5af	0.14321016
33	0xbd7ef75a	-0.06224761
34	0xbd912351	-0.07086814
35	0xbda0607c	-0.07830903
36	0x3d7232c9	0.059130464
37	0x3e1bb15e	0.15204379
38	0x3e6ad511	0.22932841
39	0xbda4ae00	-0.08041
40	0x3e160384	0.14649779
41	0xb93f3009	-0.00018233074
42	0x3c78253b	0.015145595
43	0x3d18d45c	0.037311897
44	0x3d2d3738	0.04228899
45	0x3e49ca91	0.19706179
46	0x3e53aebf	0.20672129
47	0x3ed5537f	0.41665265
48	0x3db768de	0.08955549
49	0xbd36e829	-0.044655
50	0xbda19263	-0.07889249
51	0x3de96455	0.1139609
52	0x3c4065c6	0.011743015
53	0x39450b82	0.00018791671
54	0x3eedf369	0.4647477
55	0x3e872c1e	0.26400846
56	0x3e321068	0.17389071
57	0x3b38f27b	0.0028220701
58	0x3c5d2c63	0.013499352
59	0xbd6475e6	-0.0557765
60	0x3da1b72e	0.07896267
61	0x3e121cf4	0.14268857
62	0x3d8f6249	0.07001168
63	0x3e8e40f0	0.27783918
64	0x3cd76d90	0.02629736
65	0x3e34f85d	0.17672868
66	0x3ead971e	0.33904356
67	0x3e94d945	0.29072013
68	0xbd639c66	-0.055569075
69	0xbd544151	-0.051820103
70	0xbd9e44cd	-0.077279665
71	0xbc121ee4	-0.008918498
72	0x3e563cba	0.20921603
73	0xbce3de39	-0.027815925
74	0xbd93d67c	-0.07218644
75	0x3e75c458	0.2400068
76	0xbc219655	-0.009862502
77	0x3e3613f0	0.17781043
78	0xbc19064b	-0.009339879
79	0x3e669eed	0.22521563
80	0x3dbf5496	0.09342305
81	0x3d4f900f	0.050674494
82	0xbd9beff0	-0.07614124
83	0x3eea5025	0.4576427
84	0x3e94a026	0.29028434
85	0xbd9eeff6	-0.07760613
86	0xbd7f8667	-0.062384035
87	0x3dbaa74d	0.09113941
88	0xbd832982	-0.06404401
89	0xbd0113be	-0.03151297
90	0x3d470094	0.048584536
91	0x3d9846bf	0.07435369
92	0x3eecdc29	0.4626172
93	0xbc5cf82b	-0.013486902
94	0xbd4dff24	-0.05029215
95	0xbd3383b3	-0.04382677
96	0x3d800436	0.06250803
97	0x3cdfaf1c	0.027305178
98	0x3e263280	0.16230202
99	0xbd9468f8	-0.07246584
100	0xbe12659b	-0.14296572
101	0x3e7cff23	0.24706702
102	0x3c479202	0.012180807
103	0x3d98218e	0.07428275
104	0xbd3242be	-0.04352068
105	0x3e919409	0.28433254
106	0x3f035b8a	0.5131155
107	0x3e59f551	0.21284987
108	0xbcd7602b	-0.026290974
109	0xbd41c0c1	-0.047302965
110	0x3d6883e8	0.05676642
111	0xbb39451b	-0.002826995
112	0xbd6d6f0b	-0.057967227
113	0xbd82def0	-0.06390178
114	0x3ec1c7f6	0.3784787
115	0xbca6a444	-0.020342
116	0x3ad5bdd0	0.0016307179
117	0xbd649a1d	-0.055811036
118	0x3c85ba04	0.01632405
119	0x3d9a19bc	0.0752444
120	0xbcf75785	-0.0301931
121	0x3da18b96	0.07887952
122	0x3e6cef40	0.23138142
123	0x3c63afeb	0.013896923
124	0x3efc0e0e	0.49229473
125	0x3edc3727	0.43010828
126	0xbd864aaf	-0.065572135
127	0xbd6d32f1	-0.05790991
128	0xbea8177b	-0.32830414
129	0xbb608316	-0.003425782
130	0xbe23f49f	-0.16011284
131	0xbf0cfd5b	-0.5507409
132	0xbe1d82e9	-0.1538197
133	0x3d7aed82	0.06126166
134	0x3d806ada	0.0627038
135	0xbdaf9d3e	-0.085749134
136	0xbba86da8	-0.005140025
137	0x3bad6c6b	0.0052924654
138	0x3d80b83d	0.06285141
139	0xbea5ac26	-0.323579
140	0xbd8baf11	-0.06820501
141	0xbf10c0a1	-0.5654393
142	0xbe14005e	-0.14453265
143	0xbd6f8ada	-0.05848203
144	0xbd36c399	-0.04462013
145	0x3d9a9a03	0.07548907
146	0x3c870fd9	0.016487049
147	0x3cb28448	0.021791592
148	0xbd87d695	-0.06632725
149	0x3da15778	0.078780115
150	0xbd6c83d0	-0.057742894
151	0xbe4123d6	-0.18861327
152	0xbe48546d	-0.19563456
153	0x3d9bda03	0.07609942
154	0xbd1db60f	-0.038503703
155	0xbc9acdf7	-0.01889704
156	0x3d880cc2	0.06643058
157	0xbca04395	-0.019563476
158	0xbd0c8d9b	-0.034314733
159	0x3d66ce82	0.056349285
160	0xbdfc4afa	-0.12318988
161	0xbc69a943	-0.014261547
162	0xbd802e41	-0.06258822
163	0x3da299d6	0.07939498
164	0xbde38268	-0.111088574
165	0xbdad1df8	-0.08452982
166	0xbe829e47	-0.2551138
167	0xbd841121	-0.064485796
168	0xbdcdd005	-0.10049442
169	0x3d9e638f	0.07733833
170	0x3d1aa244	0.037752405
171	0xbe077d23	-0.1323133
172	0xbdb856b5	-0.09000913
173	0xbe87e34d	-0.26540604
174	0xbe0e94bb	-0.13923924
175	0xbed61a29	-0.41816834
176	0xbe114609	-0.14186873
177	0xbd440a12	-0.047861166
178	0x3cdaa57f	0.026690243
179	0xbde41e65	-0.1113861
180	0x3da5a3e8	0.08087903
181	0xbd7db318	-0.061938375
182	0xbf2370ac	-0.638438
183	0xbe843c60	-0.25827312
184	0xbceb14f4	-0.028696515
185	0x3d9dcd7c	0.07705209
186	0x3d048061	0.032348994
187	0xbd1b3870	-0.03789562
188	0x3da70b28	0.08156425
189	0xbe113550	-0.14180493
190	0xbe124efb	-0.14287941
191	0xbe763b72	-0.24046114
192	0xbd205f89	-0.03915361
193	0xbe255119	-0.16144218
194	0xbec481e3	-0.38380346
195	0xbe9db909	-0.30805233
196	0x3cfebb41	0.031095149
197	0x3ce21c9f	0.027601538
198	0xbcc3cb0f	-0.023900537
199	0x3c322453	0.010872918
200	0xbeb7d331	-0.35903314
201	0x3d8be2e1	0.06830383
202	0xbcae8ab0	-0.021306366
203	0xbecce116	-0.40015477
204	0x3c9d725e	0.019219574
205	0xbd83c057	-0.0643317
206	0x3d97e92a	0.074175194
207	0xbe9e77e9	-0.3095086
208	0xbdd96ea8	-0.10616809
209	0xbd21cc83	-0.03950168
210	0xbd8c0a0b	-0.06837853
211	0xbebc5c6d	-0.36789265
212	0xbe7b09c8	-0.2451545
213	0xbd417b9b	-0.04723702
214	0x3cb4ff43	0.022094375
215	0xbdd277fb	-0.10276791
216	0xbb466684	-0.0030273506
217	0x3d634d57	0.05549368
218	0x3d394b18	0.04523763
219	0xbe0890f5	-0.13336547
220	0xbf0cd4c4	-0.55012155
221	0x3d978d89	0.074000426
222	0x3d4a56bd	0.049399126
223	0x3d562159	0.052277897
224	0xbd824ff7	-0.06362908
225	0x3d6965eb	0.056981962
226	0xbd16d99e	-0.03682863
227	0xbd7c5449	-0.061603818
228	0x3e883614	0.26603758
229	0xbe9dc8b3	-0.30817184
230	0x3da7bab6	0.08189909
231	0xbcb14cc4	-0.02164305
232	0xbd7a3738	-0.061087817
233	0xbea19445	-0.31558433
234	0xbeda9461	-0.4269133
235	0xbe1770f3	-0.1478918
236	0x3d022ea0	0.031782746
237	0x3cfc8caa	0.030828793
238	0xbd5adce9	-0.053433333
239	0x3d5f3473	0.05449338
240	0xbd77c8f7	-0.06049439
241	0xbd6b1c1e	-0.05739986
242	0xbeee8eec	-0.46593416
243	0x3d343301	0.043993954
244	0xbcb1f53d	-0.021723384
245	0x3d8884b9	0.0666594
246	0x3d167095	0.03672846
247	0xbdc002ed	-0.09375558
248	0xbcefef23	-0.029288834
249	0xbd982fcc	-0.074309915
250	0xbe96b292	-0.29433113
251	0x3cad2347	0.021134986
252	0xbec8ac7b	-0.39194092
253	0xbf105277	-0.5637583
254	0xbca03de2	-0.019560758
255	0x3d6aa17c	0.05728291

fc2.bias f4 [2]
0	0xbe11b81f	-0.14230393
1	0x3e47bd99	0.1950592
